…
conv2d_70 (Conv2D)              (None, None, None, 3 15555       upSamplePReLU_2[0][0]            
==================================================================================================
Total params: 1,554,883
Trainable params: 1,550,659
Non-trainable params: 4,224
__________________________________________________________________________________________________
output layer is : block5_conv4
_________________________________________________________________
Layer (type)                 Output Shape              Param #   
=================================================================
input_5 (InputLayer)         (None, 96, 96, 3)         0         
_________________________________________________________________
conv2d_71 (Conv2D)           (None, 96, 96, 64)        1792      
_________________________________________________________________
leaky_re_lu_1 (LeakyReLU)    (None, 96, 96, 64)        0         
_________________________________________________________________
conv2d_72 (Conv2D)           (None, 48, 48, 64)        36928     
_________________________________________________________________
batch_normalization_67 (Batc (None, 48, 48, 64)        256       
_________________________________________________________________
leaky_re_lu_2 (LeakyReLU)    (None, 48, 48, 64)        0         
_________________________________________________________________
conv2d_73 (Conv2D)           (None, 48, 48, 128)       73856     
_________________________________________________________________
batch_normalization_68 (Batc (None, 48, 48, 128)       512       
_________________________________________________________________
leaky_re_lu_3 (LeakyReLU)    (None, 48, 48, 128)       0         
_________________________________________________________________
conv2d_74 (Conv2D)           (None, 24, 24, 128)       147584    
_________________________________________________________________
batch_normalization_69 (Batc (None, 24, 24, 128)       512       
_________________________________________________________________
leaky_re_lu_4 (LeakyReLU)    (None, 24, 24, 128)       0         
_________________________________________________________________
conv2d_75 (Conv2D)           (None, 24, 24, 256)       295168    
_________________________________________________________________
batch_normalization_70 (Batc (None, 24, 24, 256)       1024      
_________________________________________________________________
leaky_re_lu_5 (LeakyReLU)    (None, 24, 24, 256)       0         
_________________________________________________________________
conv2d_76 (Conv2D)           (None, 12, 12, 256)       590080    
_________________________________________________________________
batch_normalization_71 (Batc (None, 12, 12, 256)       1024      
_________________________________________________________________
leaky_re_lu_6 (LeakyReLU)    (None, 12, 12, 256)       0         
_________________________________________________________________
conv2d_77 (Conv2D)           (None, 12, 12, 512)       1180160   
_________________________________________________________________
batch_normalization_72 (Batc (None, 12, 12, 512)       2048      
_________________________________________________________________
leaky_re_lu_7 (LeakyReLU)    (None, 12, 12, 512)       0         
_________________________________________________________________
conv2d_78 (Conv2D)           (None, 6, 6, 512)         2359808   
_________________________________________________________________
batch_normalization_73 (Batc (None, 6, 6, 512)         2048      
_________________________________________________________________
leaky_re_lu_8 (LeakyReLU)    (None, 6, 6, 512)         0         
_________________________________________________________________
flatten_1 (Flatten)          (None, 18432)             0         
_________________________________________________________________
dense_1 (Dense)              (None, 1024)              18875392  
_________________________________________________________________
leaky_re_lu_9 (LeakyReLU)    (None, 1024)              0         
_________________________________________________________________
dense_2 (Dense)              (None, 1)                 1025      
=================================================================
Total params: 23,569,217
Trainable params: 23,565,505
Non-trainable params: 3,712
_________________________________________________________________
>> Loading old weights
>> Found 914 images in dataset
Picture Loaders has been ready.
Data Enqueuer has been ready.
C:\ProgramData\Anaconda3\lib\site-packages\keras\engine\training.py:490: UserWarning: Discrepancy between trainable weights and collected trainable weights, did you set `model.trainable` without calling `model.compile` after ?
…
